mr_vfl_models/mr_vfl_mamba_scheduler_final.pt (torch, 909438 bytes, 22 tensors)

vehicle_embedding.weight f4 [128, 6]
0	0x3e9fce66	0.31212157
1	0x3ead7da8	0.3388493
2	0xbdc3df9c	-0.095641345
3	0x3ec002d2	0.37502152
4	0xbdb730dc	-0.08944866
5	0x3da8b738	0.08238071
6	0xbe4b8726	-0.19875774
7	0x3e7582e4	0.23975712
8	0x3eb8434a	0.35988837
9	0xbe995862	-0.29950243
10	0x3eb5ae9e	0.35484785
11	0x3d9c7b84	0.07640746
12	0x3e9a6d9a	0.30161744
13	0x3d627708	0.0552893
14	0x3e4993b4	0.1968525
15	0xbd6c18f8	-0.057641
16	0x3ea1220a	0.31471282
17	0x3d7729f0	0.06034273
18	0xbe432922	-0.1905866
19	0x3dd51e58	0.10406178
20	0xbe409bf6	-0.18809494
21	0xbd441a18	-0.047876447
22	0xbe29cb00	-0.16581345
23	0x3e8aa8ee	0.27082008
24	0xbea4ff23	-0.32225904
25	0xbe40b941	-0.18820669
26	0xbdec1768	-0.11527902
27	0xbe7b5c16	-0.24546847
28	0x3d1dd378	0.03853175
29	0xbece72a2	-0.40321833
30	0x3ebcc54c	0.36869276
31	0xbeb18efa	-0.34679395
32	0x3ea15f20	0.31517887
33	0x3d8b244c	0.067940325
34	0xbe07bdd4	-0.13256007
35	0x3e812a74	0.25227702
36	0x3d824e40	0.06362581
37	0x3ea8e20e	0.32984966
38	0x3d36cd80	0.044629574
39	0xbe03d730	-0.12875056
40	0x3de0a4f8	0.10968965
41	0xbde2bb28	-0.110708535
42	0x3e2ff01c	0.17181438
43	0x3eba9ed8	0.36449313
44	0x3e71a7d8	0.23599184
45	0xbe36c223	-0.17847495
46	0x3e7152c8	0.23566735
47	0x3d959950	0.07304633
48	0x3e544c6c	0.20732278
49	0xbe7ecd23	-0.24882941
50	0xbecee9ed	-0.40412846
51	0xbe21843e	-0.15773103
52	0xbea05355	-0.31313577
53	0x3eab82f8	0.3349836
54	0x3df0d220	0.11758828
55	0x3e2d2910	0.16910195
56	0x3e043638	0.12911308
57	0xbbe8b6c0	-0.0071018636
58	0x3ea3954e	0.31949848
59	0xbe948387	-0.29006597
60	0x3cd292f0	0.02570483
61	0xbe8eaaac	-0.27864587
62	0x3e00e7c8	0.12588418
63	0xbe0ff7be	-0.1405935
64	0x3e0018a0	0.12509394
65	0xbdae3158	-0.08505505
66	0x3ead5cb2	0.33859783
67	0xbe77c6de	-0.24196956
68	0xbe79526c	-0.24347848
69	0xbe795646	-0.24349317
70	0x3ebc011e	0.36719602
71	0x3e0b507c	0.13604921
72	0x3ec921f6	0.39283723
73	0xbeac8078	-0.33691764
74	0xbecf5337	-0.40493175
75	0xbea3883a	-0.3193987
76	0xbe8c9b8a	-0.27462417
77	0x3e295354	0.16535693
78	0x3e15b138	0.14618385
79	0x3eadaeb4	0.3392235
80	0xbe57e3c3	-0.21082978
81	0xbe8e7e58	-0.27830768
82	0x3e5dce64	0.21660763
83	0xbe28f9e7	-0.1650158
84	0x3e7db8e4	0.24777561
85	0xbdc667c0	-0.096877575
86	0x3e6f2444	0.23353678
87	0xbea2677f	-0.31719586
88	0xbe52f78a	-0.20602241
89	0x3dfee7a8	0.12446529
90	0x3db0c19c	0.08630678
91	0xbdd52b4c	-0.10408649
92	0x3e792f44	0.24334437
93	0x3e8e188a	0.27753097
94	0xbe9793f8	-0.2960508
95	0xbe5f2e7e	-0.21795079
96	0x3ebf6500	0.37381744
97	0xbe0d0ffa	-0.13775626
98	0xbe14344a	-0.14473072
99	0xbeca3fea	-0.39501888
100	0xbe6f6714	-0.23379165
101	0x3dd0dbe8	0.10198194
102	0xbd5cb790	-0.053885996
103	0xbe97ba1a	-0.29634172
104	0x3c1ce540	0.009576142
105	0xbe8ec7a4	-0.2788669
106	0xbeb155a4	-0.3463565
107	0xbe6633d4	-0.22480708
108	0xbeb6f088	-0.35730386
109	0xbe8517ce	-0.25994724
110	0x3ed0f0fe	0.40808862
111	0x3d9deabc	0.07710788
112	0x3e00d334	0.12580568
113	0xbec2f3dd	-0.38076678
114	0xbe8947ea	-0.2681268
115	0xbe0b262e	-0.13588783
116	0x3d82bda0	0.06383824
117	0xbeb7ec85	-0.35922638
118	0xbe341ff7	-0.17590319
119	0xbe7a456b	-0.24440543
120	0x3a944a00	0.0011313558
121	0xbe1b8e6e	-0.15191051
122	0xbce7c030	-0.028289884
123	0xbe8da3ea	-0.2766412
124	0xbe8f78f4	-0.28021967
125	0xbe73e392	-0.2381728
126	0xbe0f189e	-0.13974234
127	0xbea4fa5c	-0.3222226
128	0x3eaf4274	0.34230387
129	0xbda5ef30	-0.08102262
130	0x3eb3d7c4	0.35125554
131	0x3e024178	0.12720287
132	0xbeb1000a	-0.34570342
133	0x3e90a6c0	0.2825222
134	0xbde60be8	-0.1123274
135	0xbe203f7e	-0.1564922
136	0xbead8102	-0.33887488
137	0xbecfcd75	-0.4058644
138	0x3def3708	0.11680418
139	0xbdb6a3a8	-0.08917934
140	0x3e22c14c	0.1589405
141	0xbeab89a3	-0.33503446
142	0x3e9b2f54	0.30309546
143	0xbe996f28	-0.29967618
144	0xbd905ef4	-0.07049361
145	0x3daea268	0.0852707
146	0x3e57d130	0.21075892
147	0x3ea8bf1e	0.3295831
148	0x3ebe695c	0.37189758
149	0xbea5bd34	-0.32370913
150	0x3dd26ac8	0.10274273
151	0xbe33d003	-0.17559819
152	0xbd373f00	-0.044737816
153	0xbe9c73a6	-0.30556983
154	0x3ebe63fa	0.3718565
155	0xbe9969a2	-0.29963404
156	0x3e5f6ce4	0.21818882
157	0x3e12eb04	0.14347464
158	0x3e07d8bc	0.13266271
159	0xbe6203df	-0.22071789
160	0x3ebdfdec	0.3710779
161	0x3db7bb50	0.08971274
162	0x3d571c28	0.052517086
163	0xbeb833e0	-0.35977077
164	0x3e2f7db4	0.17137796
165	0xbd7adcb8	-0.06124565
166	0xbe3f8464	-0.18702847
167	0x3eb38a2a	0.35066348
168	0x3dba67e4	0.09101847
169	0xbe674b8e	-0.22587416
170	0xbe5396e9	-0.20663036
171	0xbc9fb680	-0.019496202
172	0x3e696bbc	0.22795004
173	0xbdd5a660	-0.10432124
174	0xbe6e86d6	-0.23293623
175	0xbe0f282e	-0.13980171
176	0xbe9c27ea	-0.30499202
177	0x3e1516c0	0.1455946
178	0x3ea1cad4	0.31600058
179	0xbec4c866	-0.38434142
180	0x3dc22ee0	0.09481597
181	0x3e57f594	0.21089774
182	0x3d979bb0	0.07402742
183	0xbe14e068	-0.14538729
184	0x3e5a322c	0.21308202
185	0x3e5bb058	0.21453989
186	0x3e1c51a4	0.15265518
187	0xbd92eb5c	-0.071737975
188	0xbddd65fc	-0.108104676
189	0x3d32e450	0.043674767
190	0xbd93b2fc	-0.07211873
191	0xbdf9280c	-0.121658415
192	0x3e859bea	0.26095515
193	0x3eb3a268	0.35084844
194	0xbd258ab8	-0.040415496
195	0xbdbb32d0	-0.09140551
196	0x3bc33540	0.0059572756
197	0xbcc7afc0	-0.024375796
198	0x3dc90190	0.09814751
199	0x3dea4d20	0.11440492
200	0xbebdd8c0	-0.3707943
201	0xbe1a465c	-0.15065902
202	0x3eb00648	0.34379792
203	0x3e22da1c	0.15903515
204	0xbca65740	-0.020305276
205	0xbe7c0ae1	-0.24613525
206	0xbe7fc349	-0.24976839
207	0xbebb3c6a	-0.3656953
208	0xbe084472	-0.1330736
209	0x3e0d2d0c	0.13786715
210	0x3e854716	0.26030797
211	0x3e4102c8	0.18848717
212	0xbeb8c3c7	-0.36086866
213	0xbe7b65b8	-0.24550521
214	0xbd83f308	-0.06442839
215	0x3eca32cc	0.3949188
216	0x3d71e4e0	0.059056163
217	0xbdd88604	-0.105724365
218	0x3e2cf3bc	0.16889852
219	0xbe1f39e2	-0.15549424
220	0xbe874a9a	-0.26424104
221	0x3e989036	0.29797524
222	0xbe3e161d	-0.18563123
223	0xbda79bd8	-0.08184022
224	0xbecfefe6	-0.40612715
225	0x3e8be49e	0.2732286
226	0x3e9e5cf8	0.30930305
227	0x3e185b30	0.14878535
228	0xbe91bf17	-0.28466102
229	0xbece4b14	-0.40291655
230	0xbea9c3a2	-0.33157068
231	0x3e9bde5c	0.30443084
232	0x3e48b4d8	0.19600236
233	0x3eafe4d6	0.34354275
234	0x3e5b0078	0.21386898
235	0x3dd39bc8	0.10332447
236	0xbb830040	-0.0039978325
237	0xbe9ef69e	-0.3104753
238	0xbeb315d0	-0.3497758
239	0xbec3826f	-0.3818545
240	0x3e2b21dc	0.16712135
241	0xbe4d3f51	-0.20043685
242	0xbda8440c	-0.08216104
243	0xbe70967c	-0.23494905
244	0xbd985b14	-0.07439247
245	0xbe931e26	-0.2873394
246	0xbe889439	-0.26675585
247	0x3e0aaba4	0.13542038
248	0xbdf87bd4	-0.12132993
249	0x3e8109fc	0.2520293
250	0xbe061ce8	-0.13096964
251	0xbe995520	-0.29947758
252	0xbd9384f0	-0.0720309
253	0xbe4aa598	-0.19789732
254	0xbdffcba4	-0.12490013
255	0xbec6fd36	-0.3886506

vehicle_embedding.bias f4 [128]
0	0xbe86886c	-0.26275957
1	0x3ece9780	0.4034996
2	0x3e1fcabc	0.15604681
3	0x3e27bd24	0.16380745
4	0xbe7a1dc4	-0.24425417
5	0xbe374515	-0.17897446
6	0xbd7c6c58	-0.061626762
7	0xbd98e790	-0.07466042
8	0xbe8f3b96	-0.27975148
9	0x3d09c348	0.0336335
10	0x3d2631f8	0.040574998
11	0xbd53bbd8	-0.051692814
12	0x3d67d170	0.05659622
13	0xbe25b162	-0.16180947
14	0x3dd99838	0.106247365
15	0x3e1da980	0.1539669
16	0xbe5c3387	-0.21504031
17	0xbecf4351	-0.40481046
18	0x3e5ad1e0	0.21369123
19	0x3dc77050	0.09738219
20	0xbe549d01	-0.20763017
21	0x3ec96f9e	0.3934297
22	0xbe3d0f82	-0.18462947
23	0x3e8d3f28	0.27587247
24	0x3e541638	0.20711601
25	0xbeaf3f27	-0.3422787
26	0x3e86cec2	0.2632962
27	0xbec030ed	-0.37537327
28	0xbe679a91	-0.22617556
29	0xbd8b639c	-0.06806108
30	0xbe8ce42d	-0.27517834
31	0x3ecc3260	0.39882183
32	0xbda7b400	-0.08188629
33	0x3e260b30	0.16215205
34	0xbebaa3a6	-0.3645298
35	0x3e70a7bc	0.23501486
36	0xbe01ec08	-0.12687695
37	0xbe9eff76	-0.31054276
38	0x3d748308	0.059695274
39	0x3e4a8708	0.19778073
40	0x3eb4e354	0.35329688
41	0xbe7f56ef	-0.24935506
42	0xbe4db8ed	-0.20090075
43	0x3da0bfe4	0.078491
44	0x3de2cca8	0.11074191
45	0x3e20ba28	0.15696013
46	0x3e65748c	0.2240774
47	0xbdbd964c	-0.092571825
48	0x3e6840fc	0.2268104
49	0x3e9a1c6a	0.30099803
50	0xbdda67c8	-0.10664326
51	0x3e94b606	0.29045123
52	0x3e4c3fb4	0.19946176
53	0x3eb85e94	0.36009657
54	0xbe6d9096	-0.23199686
55	0xbe4e6f5c	-0.20159668
56	0xbdf1bf34	-0.11804047
57	0x3ca9a5c0	0.020708919
58	0x3e7ae934	0.24503022
59	0xbe6ea5a2	-0.23305371
60	0x3e514be8	0.20439112
61	0xbe15d1ec	-0.1463086
62	0x3e7c8bb0	0.24662662
63	0xbc9ec810	-0.019382507
64	0xbeb71f58	-0.357661
65	0xbe66073a	-0.22463694
66	0xbe9747ea	-0.29547054
67	0x3e4f55d4	0.20247585
68	0xbe8c28fc	-0.2737502
69	0xbd0b52d0	-0.034014523
70	0x3db46450	0.088081956
71	0xbe65411d	-0.2238812
72	0x3df13008	0.11776739
73	0xbecc1857	-0.3986232
74	0xbe958ecd	-0.2921051
75	0xbebd6698	-0.36992335
76	0xbdfce628	-0.12348586
77	0xbe184b0c	-0.14872378
78	0x3d6f7220	0.058458447
79	0xbd9a9b08	-0.07549101
80	0x3e44841c	0.1919102
81	0x3ebfa1a6	0.37428015
82	0x3e15fdc4	0.14647585
83	0xbe24b257	-0.16083656
84	0xbec3b9ec	-0.38227785
85	0x3e176acc	0.14786834
86	0xbe4f1fd3	-0.20226984
87	0x3e54bbdc	0.20774788
88	0x3e8bba94	0.27290785
89	0x3e213fc0	0.15746975
90	0x3ec420f0	0.3830638
91	0x3ec68788	0.38775277
92	0x3db108bc	0.08644244
93	0xbe984d4c	-0.29746473
94	0x3ebabffa	0.36474591
95	0xbe465c77	-0.1937121
96	0xbe457735	-0.19283755
97	0x3eaee7f6	0.34161347
98	0x3ea1f40a	0.316315
99	0x3dfca060	0.123352766
100	0x3cd1a350	0.025590569
101	0xbeafd2b9	-0.34340456
102	0xbd2d9468	-0.04237786
103	0x3ec87ac6	0.3915617
104	0x3dd4eb18	0.10396403
105	0x3d0f2b50	0.034953415
106	0xbdad9d90	-0.08477318
107	0xbe11cea0	-0.14238977
108	0x3e792a44	0.2433253
109	0x3cce3e10	0.025176078
110	0x3e87fc2c	0.2655958
111	0xbd93fcbc	-0.0722594
112	0x3e36a5f4	0.17836744
113	0x3e2c8e94	0.16851264
114	0x3d8553a8	0.06510097
115	0x3e835832	0.25653225
116	0x3e82fbc6	0.25582713
117	0x3ec1bf98	0.37841487
118	0x3ea0b124	0.31385148
119	0xbdd5c93c	-0.10438773
120	0xbeb0f695	-0.34563127
121	0x3d98da30	0.07463491
122	0xbb698600	-0.0035632849
123	0xbdda12fc	-0.10648152
124	0xbd8c01f4	-0.0683631
125	0x3c9d4b90	0.01920107
126	0x3e988270	0.29787016
127	0x3e025280	0.12726784

state_embedding.weight f4 [128, 6]
0	0xbe147224	-0.14496666
1	0xbe2be93b	-0.16788189
2	0xbdcf0aec	-0.10109505
3	0xbe21937e	-0.1577892
4	0x3ebbf558	0.3671062
5	0x3e5d6a90	0.21622682
6	0x3ebcbe28	0.36863828
7	0x3aaae400	0.001303792
8	0x3da89d94	0.08233181
9	0x3e10f6b4	0.1415661
10	0xbec5d9fc	-0.3864287
11	0x3d155208	0.036455184
12	0xbcdfb470	-0.027307719
13	0xbe6a611c	-0.22888607
14	0xbea230e2	-0.3167792
15	0x3eb90af6	0.36141175
16	0x3ea9f31a	0.33193284
17	0x3e41c058	0.1892103
18	0x3ec775d4	0.38957083
19	0xbe29a57e	-0.16567037
20	0xbd906984	-0.070513755
21	0x3e1e47b4	0.1545704
22	0xbd8a250c	-0.067453474
23	0xbda4120c	-0.08011255
24	0xbeacc53d	-0.3374423
25	0x3de0a030	0.10968053
26	0xbe7ca301	-0.24671556
27	0x3c733e80	0.014846444
28	0x3ecbcade	0.39803213
29	0xbe00ae58	-0.12566507
30	0xbe03c3c6	-0.1286765
31	0x3e7c3674	0.24630147
32	0xbe19b232	-0.15009382
33	0xbd0f9a58	-0.035059303
34	0x3ec32c46	0.38119715
35	0xbe2b6353	-0.16737108
36	0xbe95898c	-0.29206502
37	0xbe69f4fc	-0.2284736
38	0xbde7cd90	-0.11318505
39	0xbe465cc8	-0.1937133
40	0xbe58efff	-0.21185301
41	0x3e28de14	0.16490966
42	0x3d8e156c	0.0693768
43	0xbe05ccf0	-0.13066459
44	0xbea26478	-0.31717277
45	0xbe03a040	-0.128541
46	0xbe306e90	-0.17229676
47	0xbe080a48	-0.13285172
48	0xbebc9088	-0.3682902
49	0x3db41e60	0.08794856
50	0xbe999300	-0.29994965
51	0xbea2c97c	-0.31794345
52	0xbeaac762	-0.33355242
53	0x3e2e7c54	0.17039615
54	0xbe7bacce	-0.24577639
55	0xbe2c8c88	-0.16850483
56	0x3ea3d740	0.3200016
57	0x3e5df7b8	0.21676528
58	0x3e6fb43c	0.23408598
59	0xbec67805	-0.38763443
60	0xbe95e3f4	-0.29275477
61	0xbe1dd12c	-0.15411824
62	0x3eacac6c	0.33725297
63	0x3d2b10b0	0.04176396
64	0xbe9c53eb	-0.30532774
65	0x3b278900	0.0025563836
66	0xbea25798	-0.31707454
67	0xbdb72ff0	-0.0894469
68	0xbde5e794	-0.11225811
69	0x3eb4f17c	0.35340488
70	0x3e017bf8	0.12644947
71	0xbd91ca58	-0.07118672
72	0x3d8d3d74	0.06896487
73	0xbdf159e0	-0.117847204
74	0x3e244024	0.16040093
75	0x3e255d30	0.1614883
76	0x3de08788	0.109633505
77	0xbe22f1de	-0.15912578
78	0x3eb25408	0.34829736
79	0xbd7169d0	-0.0589388
80	0xbe22c09c	-0.15893787
81	0x3e82ea04	0.25569165
82	0x3eaa5d9e	0.3327455
83	0x3ed002ec	0.4062723
84	0x3df7b308	0.120946944
85	0xbe0e8268	-0.13916934
86	0x3e545288	0.20734608
87	0x3eb35514	0.35025847
88	0xbecd045c	-0.40042388
89	0xbd4f2970	-0.050576627
90	0xbe8e8bec	-0.27841127
91	0x3d9bd064	0.07608107
92	0x3e2ce5c8	0.1688453
93	0xbdacba04	-0.08433917
94	0xbd0be3e8	-0.034152895
95	0x3e3c2ac8	0.18375695
96	0xbd8c8598	-0.068614185
97	0xbeaf8889	-0.34283856
98	0x3ea73f36	0.32665414
99	0xbe5268a3	-0.20547728
100	0xbd37b428	-0.044849545
101	0x3d1dbb30	0.038508594
102	0xbcc8fc70	-0.024534434
103	0xbec4a009	-0.38403347
104	0x3e3fccb4	0.18730432
105	0xbe3de3c9	-0.18543924
106	0xbe58d2de	-0.2117419
107	0x3dc7c160	0.0975368
108	0xbe5a2998	-0.2130493
109	0xbe413440	-0.18867588
110	0xbe0cdc54	-0.13755924
111	0xbe1d0cf4	-0.15336972
112	0xbe2e977f	-0.17049979
113	0xbde17b7c	-0.11009881
114	0x3dd947b8	0.106093824
115	0xbea92530	-0.33036184
116	0xbe7d0900	-0.24710464
117	0x3bc33280	0.005956948
118	0x3d688c30	0.05677432
119	0x3e66e240	0.22547245
120	0xbe92d3b9	-0.28677157
121	0x3e057068	0.13031161
122	0x3e6d9cfc	0.23204416
123	0x3e681fdc	0.22668403
124	0xbec2b04b	-0.38025126
125	0xbe1f8738	-0.15578926
126	0xbeb3ab4a	-0.3509162
127	0xbe8445b0	-0.25834417
128	0x3e68d838	0.22738731
129	0xbd79b068	-0.06095925
130	0x3e318c8c	0.1733877
131	0xbe756553	-0.23964433
132	0x3d7e1ae8	0.06203738
133	0xbe7cdbcd	-0.24693222
134	0x3e50fa5c	0.20408005
135	0xbe36d83c	-0.17855924
136	0xbdd1a868	-0.10237199
137	0xbeb55ae2	-0.354209
138	0x3ab0c600	0.0013486743
139	0x3ec6769c	0.38762367
140	0x3e4ae918	0.1981548
141	0xbe5f0b78	-0.21781719
142	0x3bb3e900	0.0054904222
143	0xbd375a40	-0.044763803
144	0xbea84775	-0.32867017
145	0x3ea3e4a8	0.32010388
146	0x3bd7a780	0.006581247
147	0x3db01420	0.085975885
148	0xbe28d1b7	-0.1648625
149	0xbe439ca1	-0.19102718
150	0x3d89dce8	0.06731588
151	0x3e1a8e68	0.15093386
152	0x3dbb88ac	0.091569275
153	0xbe4979af	-0.19675325
154	0x3ecaf0aa	0.39636737
155	0xbd762728	-0.060095936
156	0xbe800248	-0.2500174
157	0xbe438689	-0.1909429
158	0x3ecdc448	0.40188813
159	0x37a50000	1.9669533e-05
160	0xbd62fd50	-0.05541736
161	0xbe2df991	-0.16989733
162	0xbddb2d84	-0.10702041
163	0xbeb00b95	-0.34383836
164	0xbea61b73	-0.32442817
165	0x3e74ad98	0.23894346
166	0x3eb2cf08	0.34923577
167	0x3ec7788a	0.38959152
168	0xbe96e714	-0.29473174
169	0x3e621b1c	0.22080654
170	0xbe8160da	-0.25269204
171	0x3e7963c8	0.2435447
172	0x3e96d250	0.2945733
173	0x3ea1c1c6	0.3159315
174	0x3e9681e4	0.29395974
175	0x3e82c260	0.2553892
176	0x3c023000	0.007946014
177	0x3e4015bc	0.18758291
178	0xbe159096	-0.14605936
179	0x3e36082c	0.17776555
180	0xbe065c64	-0.13121182
181	0xbbe0a040	-0.006855041
182	0xbeb5ede8	-0.3553307
183	0xbdda9df0	-0.106746554
184	0xbe5bd6d7	-0.21468674
185	0xbe0d0406	-0.13771066
186	0xbe857ab7	-0.26070186
187	0xbebc0131	-0.3671966
188	0x3cd9c610	0.026583701
189	0x3e87a6d4	0.26494467
190	0x3ebe5e22	0.37181193
191	0x3e73f3e0	0.238235
192	0xbe58b062	-0.21161035
193	0xbeceb9d5	-0.40376154
194	0x3e1e921c	0.15485424
195	0x3e6a3cb4	0.22874719
196	0xbeb372ea	-0.3504861
197	0x3e15e7d4	0.14639217
198	0x3eb0b96c	0.34516466
199	0x3cca9720	0.024730265
200	0xbe7bdb0d	-0.2459528
201	0x3eab5f84	0.3347131
202	0x3e32832c	0.1743285
203	0x3e8a6a56	0.27034253
204	0xbe8d5bfc	-0.2760924
205	0x3e7347b8	0.23757827
206	0xbe8ec738	-0.27886367
207	0x3eced3c4	0.4039594
208	0xbe312048	-0.1729747
209	0x3e7be6a4	0.24599701
210	0x3da76ba4	0.08174828
211	0x3ddd92c0	0.10819006
212	0xbd803810	-0.06260693
213	0x3e2bb4d4	0.16768199
214	0xbe2e3add	-0.17014642
215	0xbec50558	-0.3848064
216	0xbe209d5a	-0.15685025
217	0x3ea3c716	0.31987828
218	0xbddc1e28	-0.10747939
219	0x3e036650	0.12831998
220	0xbe1a9010	-0.15094018
221	0x3e9ccc6e	0.30624717
222	0x3e7a3254	0.24433261
223	0x3e139378	0.14411724
224	0xbe55b072	-0.2086809
225	0xbeaacc8e	-0.33359188
226	0x3c7bd3c0	0.015370309
227	0xbe754006	-0.23950204
228	0x3eabdb86	0.3356592
229	0xbec8ddbd	-0.39231673
230	0x3e3acfc8	0.18243325
231	0x3ed060ca	0.40698844
232	0x3e515e94	0.20446235
233	0x3e0e8b7c	0.13920397
234	0xbec91c64	-0.39279473
235	0x3ec90ed4	0.39269125
236	0xbd8f02f8	-0.06982988
237	0xbec3501f	-0.38147065
238	0x3ece5702	0.40300757
239	0xbe2a1da9	-0.16612877
240	0xbcec9b30	-0.028882593
241	0x3ebf5088	0.37366128
242	0xbe90e51e	-0.28299803
243	0xbe93e1bc	-0.2888316
244	0x3d87f690	0.06638825
245	0xbd5fd418	-0.054645628
246	0x3dc09648	0.09403664
247	0xbeaf4f0e	-0.3424
248	0x3c4809a0	0.012209326
249	0xbe39ee1e	-0.18157241
250	0xbe4d83e7	-0.20069848
251	0xbebf63a9	-0.37380722
252	0x3e5da7e4	0.21646076
253	0x3da10fdc	0.07864353
254	0xbeb0b79a	-0.34515077
255	0x3ea5dee6	0.3239662

state_embedding.bias f4 [128]
0	0xbeb8312d	-0.35975018
1	0x3d19bdd8	0.037534565
2	0xbe90327c	-0.28163517
3	0x3e9c41f4	0.30519068
4	0x3d895ea8	0.06707507
5	0xbdd706e8	-0.10499364
6	0xbe554640	-0.2082758
7	0x3e10b2ac	0.14130658
8	0xbe7a5de0	-0.24449873
9	0x3e464378	0.19361675
10	0x3e641e14	0.22277099
11	0x3e804c92	0.2505842
12	0x3dda6b48	0.106649935
13	0xbeb6f8eb	-0.35736784
14	0x3e965a9a	0.29365999
15	0xbe01b010	-0.12664819
16	0xbdf72dcc	-0.12069282
17	0xbd33a860	-0.043861747
18	0x3e98d2f8	0.29848456
19	0x3ea0b934	0.313913
20	0x3d811a4c	0.06303844
21	0x3e4778b8	0.19479644
22	0xbec2cf15	-0.38048616
23	0x3a7cce00	0.00096437335
24	0xbeb8eb5a	-0.3611706
25	0x3e0e4828	0.13894713
26	0xbe94eb1d	-0.29085627
27	0xbe14fe60	-0.14550161
28	0x3e921d1c	0.28537834
29	0x3ec7c336	0.39016122
30	0xbe7afc9e	-0.24510428
31	0xbe68052e	-0.22658226
32	0x3d4f17f0	0.050559938
33	0x3e245610	0.16048455
34	0xbd882d24	-0.06649235
35	0xbe028d42	-0.12749198
36	0xbe894ba7	-0.2681553
37	0x3e32742c	0.17427129
38	0x3ecccafa	0.3999861
39	0xbe4a5e12	-0.19762447
40	0x3e452d60	0.1925559
41	0x3e4c2bec	0.1993863
42	0x3ea8031e	0.32814878
43	0xbd3e6278	-0.046480626
44	0x3c52ae40	0.012858927
45	0x3e9991ae	0.29993957
46	0x3e84205e	0.25805944
47	0x3ece7422	0.40322977
48	0xbdef9960	-0.11699176
49	0x3e256a54	0.16153842
50	0x3e91f4b4	0.28507006
51	0xbe8de364	-0.27712548
52	0x3da618e0	0.08110213
53	0xbdbb13f8	-0.09134668
54	0x3e865d7a	0.26243192
55	0xbe3bc186	-0.18335542
56	0x3cea91c0	0.028633952
57	0x3e7a1f20	0.24425936
58	0xbebf7d59	-0.3740032
59	0xbeb07dc0	-0.3447094
60	0xbe561ddb	-0.20909826
61	0x3e86122e	0.26185745
62	0x3e8c27e4	0.27374184
63	0xbe8ec1ac	-0.27882135
64	0x3d9f6ea8	0.07784778
65	0xbe5d83c5	-0.21632297
66	0xbe42098c	-0.18948954
67	0x3eb443e4	0.35208046
68	0x3e49eb90	0.19718766
69	0xbde4a834	-0.11164895
70	0x3d7625f0	0.060094774
71	0x3da1ffac	0.07910094
72	0x3dc3d8e0	0.0956285
73	0xbe0f169e	-0.13973472
74	0xbe762e70	-0.24041152
75	0x3e8a62fc	0.27028644
76	0x3d60b220	0.054857373
77	0x3e2ef920	0.17087221
78	0xbe1e5398	-0.15461576
79	0x3e4a7d28	0.19774306
80	0x3e981eb0	0.29710913
81	0x3e7e3ea0	0.24828577
82	0x3de35480	0.111001015
83	0x3ecda780	0.40166855
84	0xba6a0e00	-0.0008928478
85	0x3db2006c	0.08691487
86	0x3ec69960	0.3878889
87	0x3ecb2622	0.3967753
88	0xbe3081ee	-0.17237064
89	0x3ebc49ea	0.36775142
90	0x3e1a48c0	0.15066814
91	0xbd3b2e30	-0.045698345
92	0x3eb681fa	0.3564604
93	0xbe588f68	-0.21148455
94	0x3e87cffe	0.26525873
95	0x3ecf2158	0.40455127
96	0xbe9029e8	-0.28156972
97	0xbe76afa6	-0.24090442
98	0xbecf1fbd	-0.40453902
99	0xbd967718	-0.07346934
100	0xbebdd5e7	-0.37077257
101	0xbe0c034c	-0.13673133
102	0x3dfdd568	0.1239422
103	0x3e93c0f8	0.2885816
104	0x3e68ddd4	0.2274087
105	0x3e680cac	0.22661084
106	0x3e2d6ea8	0.16936743
107	0xbe81a4a2	-0.25320917
108	0xbea5f69b	-0.32414708
109	0x3c8aa2f0	0.016923398
110	0x3ec67c1a	0.38766557
111	0x3cbc4eb0	0.02298674
112	0xbd0fd310	-0.035113394
113	0xbe8ddf30	-0.2770934
114	0xbe4f4889	-0.20242514
115	0xbea120da	-0.31470376
116	0x3ea75bb4	0.3268715
117	0xbd883968	-0.066515744
118	0xbeb8a721	-0.3606501
119	0x3d336210	0.04379469
120	0x3cf2b1e0	0.029625833
121	0xbd4e98a0	-0.050438523
122	0x3e15a540	0.14613819
123	0x3e60d10c	0.21954745
124	0xbec49146	-0.38392085
125	0xbea02182	-0.31275564
126	0xbca0a9d0	-0.019612223
127	0xbec1cb11	-0.3785024

sequence_layers.weight_ih_l0 f4 [384, 128]
0	0xbda46e41	-0.08028842
1	0x3d9fd2e9	0.078039
2	0xbbdc4ab0	-0.0067227706
3	0xbd32fd0a	-0.043698348
4	0xbcf85ee8	-0.030318692
5	0xbd8d536c	-0.06900677
6	0x3d8d42e3	0.06897523
7	0xbc9d0210	-0.019166023
8	0xbd4b8d48	-0.049695283
9	0xbd894992	-0.067034855
10	0x3d539ba6	0.05166211
11	0xbc482e30	-0.012218043
12	0xbc1823a0	-0.009285837
13	0xbcbcb7f8	-0.023036942
14	0xbd2ec3ac	-0.042667076
15	0x3c80ce6c	0.01572343
16	0x3d8b455b	0.06800338
17	0xbd51d498	-0.051228136
18	0x3b8ac520	0.004234925
19	0xbd89aae8	-0.06722051
20	0xbd29c246	-0.04144504
21	0x3d9ee4b1	0.07758463
22	0x3a72f180	0.00092675537
23	0x3dae611f	0.08514618
24	0xbc7db908	-0.015486009
25	0xbd4553bb	-0.048175555
26	0xbd585059	-0.052811
27	0x3da070a9	0.07833988
28	0xbd8b3396	-0.067969486
29	0x3d3dfeee	0.046385698
30	0x3cb3fe28	0.021971777
31	0x3cd5ae34	0.026084043
32	0x3d4c46d6	0.049872242
33	0xbcbd6f6c	-0.02312442
34	0x3d60042e	0.054691486
35	0xbd9038e1	-0.07042099
36	0xbcfec2a6	-0.031098675
37	0x3d84837d	0.06470392
38	0x3cd6e438	0.02623187
39	0xbc40dab8	-0.011770897
40	0xbca91820	-0.020641387
41	0xbd5d10ea	-0.05397121
42	0x3d5c271a	0.053748228
43	0xbb3834c0	-0.0028107613
44	0xbb43fca0	-0.0029905215
45	0x3cab3d54	0.020903267
46	0x3d859539	0.065226026
47	0xbd38b4c3	-0.045094263
48	0xbcf95ed0	-0.030440718
49	0x3d755422	0.05989469
50	0x3d4c782e	0.0499193
51	0xbd32199b	-0.04348145
52	0xbdb31340	-0.08743906
53	0x3c865318	0.016397044
54	0x3d3e64da	0.0464829
55	0x3cacf378	0.021112189
56	0x3d80664d	0.06269512
57	0xbd8fa258	-0.070133865
58	0x3d369232	0.044573016
59	0xbd61126b	-0.054949205
60	0x3d4bc1fe	0.049745552
61	0x3d86a06d	0.065735675
62	0x3ce553b0	0.027994007
63	0x3d927549	0.071512766
64	0xbd6ea36b	-0.058261316
65	0xbda1e639	-0.079052396
66	0xbdae0d10	-0.08498585
67	0x3d634c9e	0.05549299
68	0x3cfda6c8	0.030963317
69	0xbd848df0	-0.06472385
70	0x3d2f5412	0.042804785
71	0x3da52a0d	0.08064661
72	0xbdb2800d	-0.0871583
73	0x3d8350b3	0.064118765
74	0x3c5e1b90	0.013556376
75	0x3c06b568	0.008221962
76	0x3da2e145	0.07953123
77	0x3da3ede9	0.08004362
78	0x3d188ba2	0.03724254
79	0x3d8f079b	0.069838725
80	0x3d169dee	0.036771707
81	0x3c6bf6f0	0.014402136
82	0xbd9f1e35	-0.077694334
83	0x3c873ec0	0.016509414
84	0xbd80c918	-0.062883556
85	0x3cdeeb40	0.027211785
86	0x3c7f80f0	0.015594706
87	0x3b0222a0	0.0019857064
88	0xbd778916	-0.06043347
89	0xbd5b7783	-0.053580772
90	0x3d85cc57	0.06533115
91	0x3d3051da	0.04304681
92	0x3d3ee196	0.046601854
93	0xbcd7c21e	-0.02633768
94	0xbc795de8	-0.015220143
95	0xbcb9909c	-0.022651963
96	0x3d78f8ba	0.06078408
97	0xbd1c49a6	-0.038156174
98	0x3d640912	0.055672713
99	0x3d799f96	0.06094321
100	0xbda58d65	-0.080836095
101	0x3a0d7e80	0.0005397573
102	0xbc89e730	-0.016833872
103	0xbd4824a0	-0.048863053
104	0x3d1c4c66	0.038158797
105	0xbc2ff190	-0.010738745
106	0x3d9e7be1	0.07738472
107	0xbd6299f8	-0.055322617
108	0x3d2836ee	0.04106801
109	0xbd9a8d90	-0.07546532
110	0xbd35762d	-0.044302154
111	0x3bc590e0	0.0060292333
112	0x3d8f05ab	0.06983503
113	0x3d3eb156	0.04655584
114	0xbd94a1e1	-0.072574385
115	0x3c2067d0	0.009790376
116	0xbd556b09	-0.05210403
117	0x3b7afe20	0.0038298443
118	0xbd96cd68	-0.07363397
119	0xbcd46cd2	-0.025930796
120	0x3d784f6a	0.06062261
121	0xbda6177f	-0.0810995
122	0xbdac9683	-0.08427145
123	0x3c83e2f4	0.01609943
124	0x3c4684f8	0.012116663
125	0xbc846c5c	-0.016164951
126	0x3d9e117b	0.07718178
127	0xbd59fabf	-0.053217646
128	0xbd5bc959	-0.053658817
129	0xbd874ec0	-0.06606817
130	0xbc86c460	-0.01645106
131	0xbcb8c9c0	-0.02255714
132	0x3d6002a2	0.05469001
133	0xbba2a000	-0.004962921
134	0x3ce73c98	0.028227136
135	0xbd167295	-0.036730368
136	0x3d92d76d	0.071699955
137	0x3d989a4b	0.07451304
138	0xbda21d84	-0.07915786
139	0xbcba166c	-0.02271577
140	0xbd99982d	-0.07499728
141	0x3d19cdc2	0.03754974
142	0xbd9e274f	-0.07722341
143	0xbd2b2d19	-0.041791055
144	0x3db4de99	0.0883152
145	0xbdacdbdd	-0.08440373
146	0x3d858e8f	0.065213315
147	0x3bf4ad70	0.0074669644
148	0x3d90bfd5	0.07067839
149	0xbd37bb13	-0.044856142
150	0x3d6dcc1e	0.05805599
151	0x3c2eb9b0	0.010664389
152	0x3bdec320	0.006798163
153	0x3d771a62	0.060327895
154	0xbdac1055	-0.084015526
155	0xbd91cd60	-0.0711925
156	0x3daed265	0.08536223
157	0xbd596729	-0.053076897
158	0xbd827aea	-0.063711
159	0xbb8d9d30	-0.0043217167
160	0xbce7c768	-0.028293326
161	0xbc461ff0	-0.012092575
162	0xbd728f88	-0.059218913
163	0x3d02a160	0.03189218
164	0xbd9bc389	-0.07605655
165	0x3bea94a0	0.0071588308
166	0x3d53438e	0.051578097
167	0x3c8b1f10	0.016982585
168	0x3c406a88	0.011744149
169	0x3c53d020	0.012928039
170	0xbcd41e6c	-0.025893413
171	0xbc89ef78	-0.01683782
172	0xbd18ab57	-0.037272777
173	0xbd749144	-0.05970885
174	0xbd3faf00	-0.046797752
175	0x3db2f2d5	0.08737723
176	0xbc725ba8	-0.01479236
177	0x3cfda434	0.030962087
178	0x3d7a5e8a	0.061125316
179	0xbbe240e0	-0.0069047064
180	0xbd42c476	-0.04755064
181	0xbd754b9a	-0.059886552
182	0xbd056052	-0.03256256
183	0x3d01398c	0.03154902
184	0xbd98726d	-0.074437
185	0xbc30d0a8	-0.010791935
186	0x3d09b6f4	0.033621743
187	0x3d93af81	0.07211209
188	0x3cd9e5a0	0.026598752
189	0x3c8f32c8	0.01748027
190	0x3d77d92a	0.06050984
191	0x3d274b2e	0.04084318
192	0x3cf4f71c	0.029902987
193	0xbce07f68	-0.027404502
194	0xbd9128c1	-0.07087851
195	0xbc9c66f8	-0.019092068
196	0xbc835248	-0.016030446
197	0x3bd4b260	0.0064909905
198	0xbc1f44b8	-0.009720974
199	0x3d125e3a	0.035734393
200	0x3d7097c2	0.058738478
201	0xbd12c720	-0.03583443
202	0xbdabc31a	-0.08386822
203	0xbd39bf57	-0.04534849
204	0xbd2d3a1a	-0.042291738
205	0x3d4d37d2	0.050102063
206	0xbd6987de	-0.05701434
207	0xbc083590	-0.008313552
208	0xbc9975d4	-0.018732943
209	0xbd5bbba3	-0.05364574
210	0x3d241b4e	0.040065102
211	0xbd16cf28	-0.036818653
212	0xbb95d520	-0.0045725256
213	0xbd7e8b3a	-0.062144496
214	0xbc120f80	-0.008914828
215	0x3c4dc320	0.012558728
216	0xbb6bb7c0	-0.0035967678
217	0xbd074661	-0.033026103
218	0x3cd71c8c	0.02625873
219	0xbcbb9b50	-0.022901207
220	0xbd48b6be	-0.0490024
221	0xbd857d54	-0.06518045
222	0xbc996188	-0.018723264
223	0xbdab014c	-0.08349857
224	0x3d963fe9	0.07336409
225	0xbd2cf4b7	-0.042225566
226	0xbd160911	-0.03662974
227	0x3c05ddb8	0.008170538
228	0x3cbbb474	0.022913195
229	0xbc088cc8	-0.008334346
230	0x3d785de6	0.060636424
231	0xbd530ce1	-0.051525954
232	0x3d01bf6a	0.031676687
233	0xb9510800	-0.00019934773
234	0xbd934106	-0.071901366
235	0xbd0c373a	-0.034232356
236	0x3cb844b4	0.022493698
237	0x3c8a543c	0.01688587
238	0x3d83a025	0.064270295
239	0x3d72338a	0.059131183
240	0xbd4576d2	-0.04820902
241	0xbd1a99e7	-0.03774443
242	0xbc9988cc	-0.018741988
243	0xbd81af9c	-0.06332323
244	0xbcc37e58	-0.023863956
245	0xbd942165	-0.07232932
246	0x3d09b2d4	0.03361781
247	0x3d8014f9	0.06254
248	0x3be551c0	0.0069982708
249	0xbd819696	-0.0632755
250	0xbd89165f	-0.0669372
251	0xbd0cf0fc	-0.034409508
252	0x3cd299b0	0.02570805
253	0x3b0d4b20	0.002155967
254	0x3c83a734	0.01607094
255	0x3daa9b7b	0.08330437

sequence_layers.weight_hh_l0 f4 [384, 128]
0	0x3bcae9d0	0.0061924234
1	0x3d69e2a2	0.0571009
2	0x3bec14b0	0.0072046146
3	0x3d665b06	0.05623915
4	0x3d6ee472	0.05832333
5	0xbc59a528	-0.013284005
6	0x3d96871b	0.07349988
7	0x3c82d53c	0.015970819
8	0x3d846ecf	0.064664476
9	0xbdaa7b0e	-0.08324252
10	0xbdaa0e47	-0.083035044
11	0x3cc63748	0.024196282
12	0x3ce215d8	0.027598307
13	0xbd04e0c1	-0.032440905
14	0xbcba6730	-0.022754282
15	0x3cb08868	0.021549419
16	0x3da10389	0.078620024
17	0x3ca0ca5c	0.019627742
18	0x3d95381b	0.07286092
19	0x3d9e8beb	0.07741531
20	0x3cda001c	0.02661138
21	0x3bf8de70	0.007594876
22	0xbcc22048	-0.023697034
23	0xbd821955	-0.06352488
24	0x3d494056	0.04913362
25	0x39966500	0.0002868548
26	0xbd152068	-0.036407858
27	0xbcb4b7f0	-0.022060364
28	0xbd521fd5	-0.05129989
29	0xbbf5a3b0	-0.0074963197
30	0x3d4e7926	0.050408505
31	0x3d921c2f	0.07134282
32	0xbd6a2e42	-0.05717302
33	0x3c64bc78	0.01396095
34	0xbd0f0d3d	-0.034924734
35	0xbdaae85a	-0.08345099
36	0x3d4a3622	0.04936803
37	0x3d90da39	0.07072873
38	0x3d98ab11	0.07454503
39	0x3d9b6295	0.075871624
40	0xbcfec30a	-0.031098861
41	0x3c9d05d4	0.019167818
42	0x3cf50ae8	0.029912427
43	0xbd7abe80	-0.06121683
44	0x3da12b65	0.07869605
45	0xbd9bc39e	-0.076056704
46	0x3b4cfd40	0.0031278878
47	0xbce63564	-0.02810163
48	0x3d1fdf9a	0.039031602
49	0x3d8b4689	0.06800563
50	0x3c0e3da8	0.008681692
51	0xbd2706d0	-0.04077798
52	0x3d8c2959	0.06843824
53	0xbdb0ca16	-0.08632295
54	0xbbd88c50	-0.0066085234
55	0xbda309a2	-0.07960822
56	0xbb12ab60	-0.002237998
57	0x3d8431bf	0.06454801
58	0x3d276616	0.04086884
59	0xbd2b5bb6	-0.04183551
60	0xbd34ca18	-0.044138044
61	0x3cf2dfdc	0.02964776
62	0xbd5eb4c0	-0.054371595
63	0xbd999746	-0.07499556
64	0x3d8e23a1	0.069403894
65	0x3cd26e50	0.025687367
66	0xbd8a414d	-0.067507364
67	0xbda678ae	-0.081284866
68	0x3cf63608	0.030055061
69	0xbcdfc894	-0.027317323
70	0xbd4027a9	-0.046912823
71	0x3db385d7	0.08765762
72	0x3d342be6	0.043987177
73	0x3d8a6409	0.067573614
74	0x3c68e3a8	0.014214434
75	0xbb054920	-0.0020337775
76	0xbd6d072a	-0.05786816
77	0x3d10fa0e	0.03539472
78	0xbce4ac88	-0.0279143
79	0xbc161728	-0.009160794
80	0x3b9bb0b0	0.0047512874
81	0x3d885a6b	0.06657871
82	0x3d06d8e6	0.032921694
83	0xbdb1d573	-0.0868329
84	0x3aaecbc0	0.0013335869
85	0x3d836ee5	0.06417636
86	0xbbab7b60	-0.0052332133
87	0x3d9810b3	0.0742506
88	0xbd1a8634	-0.037725642
89	0xbd84d5b0	-0.0648607
90	0x3da46361	0.080267675
91	0xbd00e37e	-0.031466953
92	0x3d85e371	0.06537522
93	0x3d8870b1	0.06662119
94	0xbd6f9d8c	-0.058499858
95	0xbda2a23e	-0.079411015
96	0xbc2bc460	-0.010483831
97	0xbd4a5b21	-0.049403314
98	0x3d8463f9	0.06464381
99	0x3d324732	0.04352493
100	0x3d999733	0.07499542
101	0xbd245ee5	-0.04012956
102	0x3c8afbb0	0.016965717
103	0x3b05d020	0.0020418242
104	0xbd84bece	-0.064817056
105	0xbd30da50	-0.04317695
106	0x3d27050a	0.04077629
107	0x3be53670	0.006995015
108	0x3da04255	0.07825152
109	0x3be219a0	0.0069000274
110	0x3cd4ae84	0.025962122
111	0x3d01283c	0.03153251
112	0xbd7340dc	-0.059388027
113	0xbd87df69	-0.06634409
114	0xbd64acbb	-0.05582879
115	0xbd01ada5	-0.03165974
116	0x3ce62090	0.028091699
117	0xbd41f011	-0.047348086
118	0xbd901f80	-0.07037258
119	0xbcd43eae	-0.025908794
120	0xbd99fccb	-0.075189196
121	0xbbf0c4c0	-0.007347673
122	0xbdaa6a8e	-0.08321105
123	0xbc3057b0	-0.010763094
124	0xbd8be2b3	-0.06830349
125	0xbda5bbc8	-0.08092457
126	0x3d81f37b	0.06345268
127	0x3db01609	0.08597953
128	0xbd7d9444	-0.061908975
129	0x3c653718	0.013990186
130	0xbd97c35d	-0.074103095
131	0xbd7c2214	-0.061555937
132	0xbda02fbc	-0.078216046
133	0xbd83f976	-0.06444065
134	0x3daf95cf	0.085734956
135	0x3cb78920	0.022404253
136	0x3d22193a	0.03957484
137	0xbd5339d6	-0.05156883
138	0x3d1572b6	0.03648635
139	0x3d005910	0.031334937
140	0x3cd6f914	0.026241817
141	0x3bcd6870	0.0062685534
142	0xbd2f2ddf	-0.042768355
143	0x3d055976	0.03255602
144	0x3d8eed0b	0.06978806
145	0xbc8aadc0	-0.016928554
146	0x3d9745b9	0.073863454
147	0x3c8035ac	0.015650593
148	0x3ca9f038	0.020744428
149	0x3d78b89e	0.06072294
150	0xbc40efb8	-0.011775903
151	0x3c9c4654	0.019076504
152	0xbc895e3c	-0.016768567
153	0xbd957b33	-0.07298889
154	0x3bc46690	0.0059936717
155	0x3cc4178c	0.02393701
156	0x3b99efe0	0.004697785
157	0x3ca6b6bc	0.020350806
158	0xbca1dc54	-0.019758381
159	0x3d905995	0.070483364
160	0xbd97336e	-0.07382856
161	0xb9ae0f00	-0.00033199042
162	0x3b8254f0	0.0039774105
163	0x3d029c10	0.031887114
164	0xbcea7f12	-0.028625045
165	0x3c87f06c	0.016594134
166	0xbd955a5e	-0.07292627
167	0x3d05d3d4	0.03267272
168	0xbce60e76	-0.028083067
169	0x3d7a67c2	0.061134107
170	0x3d9dae1b	0.076992236
171	0x3d9f9535	0.07792131
172	0xbd516e5c	-0.051130638
173	0x3d28d3fa	0.04121778
174	0xbd27b942	-0.04094816
175	0x3c685488	0.01418031
176	0x3d07ea18	0.033182234
177	0xbd9bb0c6	-0.07602076
178	0xbdaad065	-0.08340529
179	0x3be36650	0.006939687
180	0x3c28c9a0	0.010301977
181	0xbd686de8	-0.05674544
182	0x3d317b62	0.043330558
183	0x3d628442	0.055301912
184	0xbc710040	-0.014709532
185	0xbda42774	-0.080153376
186	0x3cc3472c	0.023837648
187	0xbd4596d4	-0.048239544
188	0xbc0c6098	-0.008567952
189	0xbc9976f8	-0.018733487
190	0x3d3ddb22	0.04635156
191	0x3cc2c7c0	0.023776889
192	0xbd7ca834	-0.06168385
193	0xbd9fdc21	-0.07805658
194	0xbd3f4f55	-0.046706516
195	0xbdb1b673	-0.086773776
196	0xba2fe600	-0.0006709993
197	0xbd233e6e	-0.03985446
198	0xbcf77064	-0.03020496
199	0xbda3e2cd	-0.08002243
200	0x3d943f19	0.072385974
201	0xbd5d5c3c	-0.05404304
202	0xbcf8478e	-0.030307557
203	0x3d7cfe42	0.061765917
204	0xbc6c77d8	-0.01443287
205	0xbc9bb26c	-0.019005977
206	0x3d309e8a	0.043119945
207	0xbd0f7099	-0.03501949
208	0x3d801e75	0.06255809
209	0xbbb18f90	-0.0054187253
210	0x3d3b53de	0.04573428
211	0x3bbfcde0	0.0058533996
212	0xbd23b7cf	-0.039970215
213	0xbd286a0e	-0.041116767
214	0x3b76e220	0.0037671402
215	0xbcc4bb64	-0.024015136
216	0x3d5f84b6	0.054569922
217	0x3d59b476	0.053150617
218	0xbd3fed83	-0.04685737
219	0xbd4fd889	-0.050743613
220	0xbc708380	-0.01467979
221	0x3d901c79	0.07036681
222	0xb9ba7e00	-0.00035570562
223	0x3d912ba5	0.07088403
224	0x3cd6d40c	0.026224159
225	0xb9c93900	-0.00038380176
226	0xbd926e67	-0.07149964
227	0xbb8ca310	-0.0042918995
228	0xbd6ee3ad	-0.058322597
229	0xbd39a60f	-0.04532438
230	0x3d37c232	0.044862933
231	0xbd53d1f7	-0.05171391
232	0xbd3c892d	-0.04602926
233	0x3d8fa2e7	0.07013493
234	0xbd17f61f	-0.037099954
235	0xbd87625e	-0.06610559
236	0xbcbf5e80	-0.02336049
237	0xbb03d280	-0.0020114481
238	0xbd9bb3fc	-0.07602689
239	0xbdada99d	-0.08479617
240	0xbd9e6b20	-0.07735276
241	0x39c18500	0.0003691092
242	0xbc023708	-0.007947691
243	0xbdaa0d98	-0.08303374
244	0xbd6d3e21	-0.05792058
245	0x3a9e4c00	0.0012077093
246	0xbda058a2	-0.07829405
247	0xbd4e0230	-0.050295055
248	0xbd02ac45	-0.03190257
249	0xbdaeb0fc	-0.08529851
250	0xbc627180	-0.013821006
251	0xbcf20440	-0.029543042
252	0x3c7d2c78	0.015452497
253	0x3b811f80	0.0039405227
254	0x3d26ac3e	0.040691607
255	0xbcda0bc2	-0.026616935

sequence_layers.bias_ih_l0 f4 [384]
0	0x3d80e5ff	0.06293868
1	0x3cebbda8	0.028776959
2	0x3d7544be	0.05988001
3	0x3dad6da7	0.0846818
4	0xbd911c6f	-0.070855014
5	0x3c430648	0.011903353
6	0x3d9a42bd	0.075322606
7	0xbc354e70	-0.011066064
8	0xbd9f9c0b	-0.07793435
9	0x3c5fe1d8	0.013664685
10	0x3db4393b	0.08799978
11	0x3d31c096	0.043396555
12	0xbd8c4f46	-0.06851058
13	0x3d9e9daf	0.077449195
14	0xbc175670	-0.009236917
15	0xbbe808b0	-0.0070811138
16	0xbd7c3cf5	-0.06158157
17	0x3cebed3c	0.028799646
18	0x3cdc1640	0.026866078
19	0x3ce7092c	0.028202616
20	0x3d8ab87b	0.06773468
21	0x3d831ead	0.06402335
22	0x3ce814a8	0.028330162
23	0xbb06b420	-0.002055414
24	0xbd6b02b8	-0.05737564
25	0xbd0a2c2a	-0.033733524
26	0xbd04e1e1	-0.032441977
27	0x3da4cf7f	0.08047389
28	0xbcdddffc	-0.027084343
29	0x3c51e990	0.012812033
30	0xbd8ea267	-0.069645695
31	0x3ca8dd1c	0.020613246
32	0xbd4dedce	-0.050275616
33	0x3bd0d050	0.006372489
34	0x3d5dce42	0.05415178
35	0x3d0fbc82	0.035091884
36	0x3d7bba9a	0.061457254
37	0xbd057618	-0.032583326
38	0xbda3b4d4	-0.079934746
39	0xbc9182cc	-0.017762564
40	0x3db057a5	0.08610467
41	0xbd36c10c	-0.044617698
42	0x3d8a5ead	0.06756339
43	0xbda5edb2	-0.081019774
44	0xbb55dea0	-0.0032633916
45	0x3cbe5ae8	0.023236707
46	0xbd900977	-0.07033055
47	0xbaf9e280	-0.0019064695
48	0x3b3aaaa0	0.0028483048
49	0x3d625232	0.05525417
50	0x3d8ae867	0.067826085
51	0x3c281d90	0.0102609545
52	0x3c4ae9f8	0.012384884
53	0xbd22c0e5	-0.03973474
54	0x3ce29348	0.02765812
55	0x3c840db8	0.016119823
56	0x3cf45464	0.029825397
57	0xbc980b28	-0.018560007
58	0xbc8d7998	-0.017269894
59	0x3db45e4b	0.088070475
60	0xbd930646	-0.07178931
61	0xbd4f9bc5	-0.050685663
62	0x3ccae1c0	0.02476585
63	0x3c2695b0	0.010167524
64	0xbd0031a7	-0.031297352
65	0x3b031960	0.0020004138
66	0x3d8e7fe5	0.06957988
67	0xbbd25fa0	-0.006420091
68	0xbb84fdf0	-0.004058592
69	0x3d70129e	0.058611505
70	0x3cd38d94	0.025824346
71	0xbd2da294	-0.042391375
72	0xbcad5114	-0.021156825
73	0x3c535948	0.012899704
74	0x3db421d5	0.087955154
75	0x3d8716db	0.06596156
76	0x3bef22d0	0.007297851
77	0x3c682928	0.014169969
78	0xbd8f83da	-0.070075706
79	0x3d4fde82	0.05074931
80	0x3d6f1b4a	0.058375634
81	0x3d8530e7	0.06503468
82	0xbcce482c	-0.025180899
83	0x3d78b402	0.060718544
84	0xbd0f7b67	-0.035029795
85	0xbd868a2e	-0.065693244
86	0x3d25e5e2	0.040502436
87	0xbd867ae0	-0.06566405
88	0xbd1914b8	-0.037373275
89	0xbc7eb280	-0.015545487
90	0x3d6bbdc2	0.057554014
91	0xbc60e0e8	-0.013725497
92	0xbcb443c8	-0.022004977
93	0xbd9a045e	-0.07520364
94	0xbda63f1b	-0.08117505
95	0xbd5c7105	-0.05381872
96	0x3d9cbdcb	0.07653388
97	0x3da97539	0.082743116
98	0x3c69ed20	0.014277726
99	0xbc25e128	-0.010124482
100	0x3d8ab705	0.067731895
101	0x3d3040ca	0.043030538
102	0x3d053130	0.032517612
103	0x3d7ae8e6	0.061257266
104	0x3c2f0260	0.010681719
105	0x3d2ac662	0.0416931
106	0x3d032410	0.032016814
107	0xbd973c9f	-0.073846094
108	0x3bbdf820	0.005797401
109	0xbd97399c	-0.07384035
110	0x3cbae388	0.022813573
111	0x3da8b0f5	0.08236877
112	0xbcdd8158	-0.027039215
113	0xbda271c4	-0.07931855
114	0xbd690c55	-0.056896526
115	0xbc61f7a8	-0.013791956
116	0xbd951da5	-0.07281045
117	0x3d45923e	0.04823517
118	0xbcab5aa8	-0.020917252
119	0x3d507526	0.05089297
120	0xbd0caa57	-0.034342136
121	0xbd96a04b	-0.07354792
122	0x3d152238	0.036409587
123	0xbd8d0c16	-0.06887071
124	0xbd16b2b5	-0.036791522
125	0xbda0dd2d	-0.07854686
126	0xbd34fe47	-0.04418781
127	0xbd8e0723	-0.06934955
128	0xbd25d9af	-0.040490802
129	0x3da5d8c5	0.08097986
130	0xbd861a60	-0.065479994
131	0x3cfcd018	0.030860946
132	0xbd736c23	-0.0594293
133	0x3cf5b4c0	0.029993415
134	0xbdad0080	-0.08447361
135	0xbd31e9a4	-0.043435708
136	0x3bcc86d0	0.006241657
137	0x3d042a62	0.032266982
138	0xbd88eb0c	-0.06685457
139	0xbd762744	-0.06009604
140	0xbd5ba962	-0.053628333
141	0x3d997b9b	0.07494279
142	0xbd8bfff6	-0.0683593
143	0x3d0341ea	0.032045282
144	0x3d2720ae	0.04080265
145	0x3890e800	6.9096684e-05
146	0xbca43864	-0.02004642
147	0xbd5417bf	-0.05178046
148	0xbb3d92e0	-0.0028926656
149	0x3d17f142	0.037095316
150	0x390fbe00	0.00013708323
151	0x3d86e627	0.06586867
152	0x3ca02cb8	0.019552574
153	0x3d840c67	0.06447678
154	0x3d682b1a	0.05668173
155	0x3d82b9e5	0.06383113
156	0xba816480	-0.000987187
157	0x3c34d500	0.011037111
158	0xbcd9b628	-0.026576117
159	0x3d5fcf2e	0.05464094
160	0xbd5de999	-0.054177854
161	0xbab9f0c0	-0.0014186129
162	0xbd176097	-0.03695735
163	0x3b9630f0	0.0045834705
164	0x3da6dcd5	0.08147589
165	0x3d9ccdb9	0.07656426
166	0xbda53512	-0.08066763
167	0x3d1485c2	0.036260374
168	0x3c5f67f0	0.0136356205
169	0x3cde1f84	0.027114637
170	0x3ba9ca80	0.0051816106
171	0xbd9494b1	-0.07254923
172	0x3d912d4d	0.070887186
173	0xbd52a28f	-0.05142456
174	0x3d5707ae	0.05249756
175	0xbd9833a3	-0.07431724
176	0x3d0f0438	0.034916133
177	0x3d6d2146	0.05789306
178	0x3d41e7c6	0.047340177
179	0xbd95a877	-0.07307523
180	0x3ca42ae8	0.02003999
181	0x3daddbd1	0.08489192
182	0x3d02b9b2	0.031915374
183	0xbd8ce9d5	-0.068805374
184	0xbd011d6b	-0.031522196
185	0x3c193ab8	0.009352379
186	0xbd53b62a	-0.051687397
187	0x3d43c5fa	0.047796227
188	0xbc3615d8	-0.011113606
189	0x3db42723	0.08796527
190	0x3d9cdcc1	0.07659293
191	0x3caab5a8	0.020838574
192	0x3d97c639	0.07410855
193	0x3daf6991	0.08565057
194	0x3da6b703	0.081403755
195	0x3d1b8dce	0.037977032
196	0x3d8c30c3	0.06845238
197	0xbd10448d	-0.035221625
198	0xbcf9651c	-0.03044372
199	0x3d9fe953	0.07808175
200	0xbdad9101	-0.08474923
201	0xbcf24ae0	-0.029576719
202	0x3ca7ec7c	0.020498507
203	0x3d87b45b	0.06626197
204	0x3d0a6aee	0.033793382
205	0x3d4d663e	0.050146334
206	0xbd6872cb	-0.0567501
207	0xbcd095b8	-0.025462016
208	0xbd67a514	-0.056553915
209	0xbdb10f0c	-0.08645448
210	0x3d062e58	0.03275904
211	0xbd979ce6	-0.07402973
212	0xbd778c72	-0.060436673
213	0xbc31aae0	-0.010843962
214	0xbd871825	-0.06596402
215	0x3d97b9f1	0.074085124
216	0x3d04c110	0.03241068
217	0x3d04ae94	0.032393053
218	0x3d7d46ca	0.061835088
219	0xbd17b2fa	-0.03703592
220	0xbd960e7f	-0.07326984
221	0xbd5f8681	-0.054571632
222	0x3d4ae126	0.049531125
223	0x3cf042f0	0.029328793
224	0xbd8f4c2d	-0.06996951
225	0x3d2fb3ee	0.042896204
226	0x3a9aa100	0.0011797249
227	0xbdaa82a4	-0.08325699
228	0xbd966f25	-0.07345418
229	0x3b934b60	0.0044950694
230	0x3c838bf0	0.016057938
231	0x3c08c7d8	0.008348428
232	0x3d937d7d	0.07201669
233	0xbbf82cf0	-0.0075737163
234	0xbca49444	-0.02009023
235	0x3bc127b0	0.0058946237
236	0x3d9c4e4d	0.07632122
237	0x3d781976	0.060571156
238	0xbda522dc	-0.080632895
239	0x3daa0879	0.08302397
240	0xbdabf824	-0.083969384
241	0xbd3fd6c9	-0.046835694
242	0xbd03d887	-0.03218892
243	0x3cea494c	0.028599404
244	0xbb833e30	-0.004005216
245	0xbd8d27f8	-0.06892389
246	0xbd0e0f16	-0.034682356
247	0xbc113c48	-0.00886447
248	0x3bd5e2c0	0.006527275
249	0xbd324d28	-0.043530613
250	0xbd1f3dfa	-0.038877465
251	0x3c388c88	0.011263974
252	0xbb1a95c0	-0.0023587793
253	0x3cb88a84	0.022526987
254	0x3d304c2e	0.0430414
255	0x3c27e698	0.010247849

sequence_layers.bias_hh_l0 f4 [384]
0	0x3d8efda1	0.069819696
1	0x3ce78678	0.028262362
2	0x3d98c877	0.07460111
3	0x3d6bc8b2	0.057564445
4	0x3d18978e	0.03725391
5	0x3cf95ca8	0.03043969
6	0xbcd15ddc	-0.025557451
7	0x3cfe5c34	0.031049825
8	0x3c75d698	0.015004776
9	0xbd19e274	-0.03756948
10	0xbda64a38	-0.08119625
11	0xbdab5e6c	-0.08367619
12	0xbc7a0970	-0.015261039
13	0xbcf5157e	-0.029917475
14	0x3b897530	0.004194878
15	0x3d960329	0.073248215
16	0x3b9998b0	0.004687391
17	0xbd2b6be3	-0.041850936
18	0xbd85afad	-0.06527648
19	0x3da6b437	0.08139842
20	0xbca1018c	-0.019654058
21	0xbd85eb45	-0.06539015
22	0x3d577b0a	0.052607574
23	0x3d5b58c2	0.053551443
24	0xbd9a2a3b	-0.07527586
25	0x3d5fe11e	0.054658048
26	0xbb778540	-0.0037768632
27	0x3d3a3226	0.04545798
28	0xbcb49fec	-0.022048913
29	0x39adb300	0.00033130497
30	0xbd9e3e3c	-0.07726714
31	0x3d628002	0.05529786
32	0xbc91fca0	-0.017820656
33	0xbbd785a0	-0.0065772086
34	0x3d18d64a	0.037313737
35	0xbd846840	-0.064651966
36	0x3d7a913e	0.06117367
37	0x3d4062a2	0.046969064
38	0x3bba6a00	0.0056889057
39	0x3c4183d0	0.011811212
40	0x3da4ff67	0.08056527
41	0x3d1c5922	0.03817094
42	0xbc67d638	-0.014150195
43	0xbd5c0cca	-0.053723134
44	0x3d547cc2	0.05187679
45	0xbd84e5fa	-0.06489177
46	0xbd99dc32	-0.07512702
47	0xbce30b8e	-0.02771547
48	0xba6ffd80	-0.0009154901
49	0xbb0ea220	-0.0021764114
50	0xbd31e47e	-0.043430798
51	0x3a89eb40	0.001052238
52	0xbdac73da	-0.084205344
53	0x3bf7f130	0.0075665936
54	0x3d84025d	0.06445763
55	0xbca71a2c	-0.020398222
56	0xbc1a3830	-0.00941281
57	0x3da3c027	0.079956345
58	0xbccdcc0c	-0.025121711
59	0x3d6e206a	0.05813638
60	0x3d74f63e	0.059805147
61	0x3d4f422e	0.050600223
62	0x3d33a97e	0.043862812
63	0xbbb54db0	-0.0055329427
64	0xbc5d3fe0	-0.0135039985
65	0xbd19459f	-0.03741991
66	0xbcd34600	-0.025790215
67	0xbd37311f	-0.04472458
68	0xbbd2cc60	-0.006433055
69	0xbd83c237	-0.06433528
70	0xbda74d05	-0.08168987
71	0x3d913b7f	0.07091426
72	0x3d3d7fde	0.04626452
73	0xbc6f2e88	-0.014598496
74	0x3d9c0b67	0.07619362
75	0xbbb7c020	-0.00560762
76	0xbd4fe5ea	-0.050756373
77	0x3d22d64a	0.039755143
78	0x3cc51ff4	0.024063088
79	0x3d12f1b8	0.035875052
80	0x3c1cc790	0.009569064
81	0x3d047cf4	0.032345727
82	0xbd75e8a2	-0.06003631
83	0x3d08bc24	0.03338255
84	0x3bb54df0	0.0055329725
85	0xbc3cd048	-0.0115242675
86	0x3c50eb20	0.012751371
87	0x3d824a69	0.06361849
88	0xbd93f330	-0.07224119
89	0x3d57ddae	0.052701645
90	0x3bfb8d40	0.0076767504
91	0xbcd44676	-0.025912505
92	0x3c2b3b88	0.010451205
93	0x3cc64294	0.024201669
94	0x3d62521e	0.055254094
95	0x3cbcf0bc	0.02306401
96	0x3b4dcb00	0.0031401515
97	0x3dadad11	0.084802754
98	0x3c258b20	0.010103971
99	0xbd847a16	-0.064685985
100	0x3d902801	0.0703888
101	0x3d7ba5a2	0.061437257
102	0xbd87762c	-0.06614336
103	0xbd8e0d5d	-0.069361426
104	0xbce96796	-0.028491776
105	0xbd819595	-0.06327359
106	0xbda4014a	-0.08008058
107	0x3d26aa06	0.04068949
108	0xbd3ca35f	-0.04605424
109	0xbcac9e38	-0.021071538
110	0xbd9a9b1d	-0.07549117
111	0xbd07fe2e	-0.03320139
112	0x3da663ab	0.08124479
113	0x3d9e5809	0.07731635
114	0x3bdeb2b0	0.0067962036
115	0x3cb26ba8	0.02177985
116	0x3c45b528	0.012067117
117	0x3da0d453	0.07852998
118	0xbd803444	-0.06259969
119	0x3c9cebf4	0.01915548
120	0xbc8c2fe8	-0.017112687
121	0xbd81b49b	-0.06333276
122	0x3c91d6c0	0.017802596
123	0x3d70425e	0.058657043
124	0x3c81a2f4	0.015824772
125	0xbd21df93	-0.039519858
126	0x3c34f3d8	0.011044465
127	0xbcb59d70	-0.022169799
128	0x3d92ebfd	0.071739174
129	0x3cc56fdc	0.02410119
130	0xbd9f4a4a	-0.077778414
131	0xbd3b0239	-0.045656417
132	0xbda49c1f	-0.0803759
133	0xbafe8140	-0.0019417182
134	0x3ccaa624	0.024737425
135	0xbd382b48	-0.04496315
136	0x3d234e42	0.039869554
137	0x3d1b7ca6	0.03796067
138	0x3b471c20	0.0030381754
139	0xbd1b9e95	-0.037993032
140	0xbd71d0b0	-0.05903691
141	0x3a192900	0.00058425963
142	0x3d8668cd	0.06562958
143	0x3d5ba05a	0.05361972
144	0xbcacee68	-0.021109775
145	0x3d620aba	0.05518601
146	0x3db50057	0.088379554
147	0xbd62d86d	-0.05538218
148	0x3ca54a78	0.020177111
149	0xbd8682fa	-0.065679505
150	0xbd89cd0f	-0.06728565
151	0x3d74482a	0.059639134
152	0xbc7dbc58	-0.015486799
153	0x3d9e8161	0.07739521
154	0xbc0f7940	-0.008756936
155	0x3d7f1942	0.062279947
156	0x3d31fbda	0.043453075
157	0x3c043d88	0.008071311
158	0xbb4db380	-0.0031387508
159	0x3d9d1cdb	0.07671519
160	0x3d7496a6	0.059713982
161	0xbbf073e0	-0.007338032
162	0x3d09712e	0.033555202
163	0xbd0b141c	-0.033954725
164	0x3d92e62d	0.07172809
165	0x39eb9100	0.00044930726
166	0x3b925850	0.004466094
167	0x3cb498b4	0.02204547
168	0xbd272b19	-0.040812586
169	0xbd608cbb	-0.05482171
170	0x3ca20f00	0.019782543
171	0xbcb4a5b4	-0.02205167
172	0xbd40d021	-0.047073487
173	0xbd99632e	-0.0748962
174	0x3d8565c1	0.06513549
175	0x3c41ce48	0.011828966
176	0x3cb5bc6c	0.022184573
177	0x3d89d1ad	0.067294456
178	0xbc826da4	-0.015921421
179	0xbd89f351	-0.06735862
180	0xbd89739e	-0.06711505
181	0xbd26b25e	-0.040697448
182	0xbdacca9c	-0.08437082
183	0x3c132960	0.008982033
184	0x3c5929d8	0.013254605
185	0xbdafbc8c	-0.08580884
186	0x3d7fa836	0.062416278
187	0xbd80fae4	-0.062978536
188	0x3daa933d	0.08328865
189	0xbd2bf212	-0.041978903
190	0x3db3f657	0.0878722
191	0xbd7cd29c	-0.06172429
192	0xbd88ac4e	-0.066734895
193	0x3aa837c0	0.0012833998
194	0xbd9b0965	-0.07570151
195	0xbcc00c88	-0.023443475
196	0x3d61723a	0.055040576
197	0xbc56a930	-0.013101861
198	0x3d6b4e3a	0.05744765
199	0x38a0dc00	7.670373e-05
200	0x3d89638f	0.067084424
201	0x3d1d3d9e	0.03838884
202	0xbda4d4fa	-0.080484346
203	0x3d6fbee6	0.058531664
204	0xbd62fecc	-0.055418774
205	0x3c25f900	0.010130167
206	0x3c6a91d0	0.014316991
207	0xbb346820	-0.0027527884
208	0x3d45b812	0.048271246
209	0xbd84712e	-0.064669
210	0x3d2a1da2	0.041532166
211	0xbc481e60	-0.012214273
212	0xbd8ca594	-0.06867519
213	0x3d62c54e	0.055363946
214	0x3d973109	0.073823996
215	0x3d2f8be6	0.042858027
216	0xbc077368	-0.008267261
217	0x3da094f5	0.07840911
218	0x3c6ba048	0.014381476
219	0x3d319c5e	0.043362014
220	0x3d93b9ef	0.072131984
221	0xbd3ea6f3	-0.046545934
222	0xbd4aa4ae	-0.049473457
223	0x3c1f1248	0.009708948
224	0xbc549a98	-0.012976311
225	0xbd92be73	-0.071652316
226	0x3d7a955e	0.061177604
227	0xbd2fd3d5	-0.04292663
228	0xbd954ba5	-0.07289819
229	0xbd2e22c9	-0.042513642
230	0xbda50758	-0.08058041
231	0x3d983e25	0.07433728
232	0x3d53d45e	0.0517162
233	0xbd5a5f68	-0.053313643
234	0xbc7de2c8	-0.015495963
235	0x3ada3e00	0.0016650558
236	0x3d385052	0.044998474
237	0x3d764f5a	0.06013427
238	0x3ce42084	0.027847536
239	0x3bc347a0	0.005959466
240	0xbd8fbc1e	-0.070183024
241	0x3da7b717	0.081892185
242	0x3d08da3e	0.033411257
243	0x3cf62e10	0.030051261
244	0x3d8d2331	0.06891478
245	0xbcd74cc8	-0.02628173
246	0x3d13f966	0.036126517
247	0xbc8eeb74	-0.017446257
248	0xbc678e20	-0.014133006
249	0x3ba5f0f0	0.0050641224
250	0x3d7b262a	0.061315693
251	0x3db144bb	0.086556874
252	0xbd2b996e	-0.04189437
253	0xbd7df82e	-0.06200426
254	0x3bff0450	0.0077824965
255	0x3d0bbe72	0.03411717
